…
2020-05-18 23:48:36.791080: I tensorflow/core/common_runtime/gpu/gpu_device.cc:1115] 0:   N 
2020-05-18 23:48:36.791911: I tensorflow/core/common_runtime/gpu/gpu_device.cc:1241] Created TensorFlow device (/job:localhost/replica:0/task:0/device:GPU:0 with 2990 MB memory) -> physical GPU (device: 0, name: GeForce GTX 1050 Ti, pci bus id: 0000:01:00.0, compute capability: 6.1)
Model: "sequential"
_________________________________________________________________
Layer (type)                 Output Shape              Param #   
=================================================================
reshape (Reshape)            (None, 32, 32, 3)         0         
_________________________________________________________________
conv2d (Conv2D)              (None, 30, 30, 64)        1792      
_________________________________________________________________
batch_normalization (BatchNo (None, 30, 30, 64)        256       
_________________________________________________________________
max_pooling2d (MaxPooling2D) (None, 14, 14, 64)        0         
_________________________________________________________________
conv2d_1 (Conv2D)            (None, 12, 12, 128)       73856     
_________________________________________________________________
batch_normalization_1 (Batch (None, 12, 12, 128)       512       
_________________________________________________________________
max_pooling2d_1 (MaxPooling2 (None, 10, 10, 128)       0         
_________________________________________________________________
conv2d_2 (Conv2D)            (None, 8, 8, 256)         295168    
_________________________________________________________________
conv2d_3 (Conv2D)            (None, 7, 7, 256)         262400    
_________________________________________________________________
conv2d_4 (Conv2D)            (None, 6, 6, 380)         389500    
_________________________________________________________________
max_pooling2d_2 (MaxPooling2 (None, 4, 4, 380)         0         
_________________________________________________________________
flatten (Flatten)            (None, 6080)              0         
_________________________________________________________________
dense (Dense)                (None, 1024)              6226944   
_________________________________________________________________
dropout (Dropout)            (None, 1024)              0         
_________________________________________________________________
dense_1 (Dense)              (None, 256)               262400    
_________________________________________________________________
dropout_1 (Dropout)          (None, 256)               0         
_________________________________________________________________
dense_2 (Dense)              (None, 10)                2570      
=================================================================
Total params: 7,515,398
Trainable params: 7,515,014
Non-trainable params: 384
_________________________________________________________________
WARNING:tensorflow:sample_weight modes were coerced from
  ...
    to  
  ['...']
Train for 90.0 steps, validate on 5000 samples
Epoch 1/100
2020-05-18 23:48:40.350384: I tensorflow/stream_executor/platform/default/dso_loader.cc:44] Successfully opened dynamic library cublas64_10.dll
…
