…
2020-05-02 21:05:37.748003: I tensorflow/core/common_runtime/gpu/gpu_device.cc:1115] 0:   N 
2020-05-02 21:05:37.749117: I tensorflow/core/common_runtime/gpu/gpu_device.cc:1241] Created TensorFlow device (/job:localhost/replica:0/task:0/device:GPU:0 with 2990 MB memory) -> physical GPU (device: 0, name: GeForce GTX 1050 Ti, pci bus id: 0000:01:00.0, compute capability: 6.1)
Model: "sequential"
_________________________________________________________________
Layer (type)                 Output Shape              Param #   
=================================================================
reshape (Reshape)            (None, 28, 28, 1)         0         
_________________________________________________________________
conv2d (Conv2D)              (None, 26, 26, 8)         80        
_________________________________________________________________
batch_normalization (BatchNo (None, 26, 26, 8)         32        
_________________________________________________________________
max_pooling2d (MaxPooling2D) (None, 12, 12, 8)         0         
_________________________________________________________________
conv2d_1 (Conv2D)            (None, 10, 10, 16)        1168      
_________________________________________________________________
batch_normalization_1 (Batch (None, 10, 10, 16)        64        
_________________________________________________________________
max_pooling2d_1 (MaxPooling2 (None, 8, 8, 16)          0         
_________________________________________________________________
conv2d_2 (Conv2D)            (None, 7, 7, 32)          2080      
_________________________________________________________________
conv2d_3 (Conv2D)            (None, 6, 6, 32)          4128      
_________________________________________________________________
conv2d_4 (Conv2D)            (None, 4, 4, 64)          18496     
_________________________________________________________________
max_pooling2d_2 (MaxPooling2 (None, 3, 3, 64)          0         
_________________________________________________________________
flatten (Flatten)            (None, 576)               0         
_________________________________________________________________
dense (Dense)                (None, 64)                36928     
_________________________________________________________________
dropout (Dropout)            (None, 64)                0         
_________________________________________________________________
dense_1 (Dense)              (None, 32)                2080      
_________________________________________________________________
dropout_1 (Dropout)          (None, 32)                0         
_________________________________________________________________
dense_2 (Dense)              (None, 10)                330       
=================================================================
Total params: 65,386
Trainable params: 65,338
Non-trainable params: 48
_________________________________________________________________
Train on 60000 samples, validate on 10000 samples
Epoch 1/100
2020-05-02 21:05:38.712956: I tensorflow/stream_executor/platform/default/dso_loader.cc:44] Successfully opened dynamic library cublas64_10.dll
…
